# parameters
nc: 3  # number of classes
depth_multiple: 1.00  # model depth multiple
width_multiple: 1.00  # layer channel multiple

# anchors
anchors:
  - [10,13, 16,30, 33,23]   # P3/8
  - [30,61, 62,45, 59,119]  # P4/16
  - [116,90, 156,198, 373,326]  # P5/32

# YOLOv5 backbone
backbone:
  # [from, number, module, args]
  # Two Stream
  [
    ######### TransformerBlock One #############
    # stream one
    [-1, 1, Focus, [64, 3]],    # 0-P1/2
    [-1, 1, Conv, [128, 3, 2]], # 1-P2/4
    [-1, 3, C3, [128]],   # 2-P2/4
    [-1, 1, Conv, [256, 3, 2]],  # 3-P3/8
    [-1, 9, C3, [256]],   # 4-P3/8
    # stream two
    [-4, 1, Focus, [64, 3]],    # 5-P1/2
    [-1, 1, Conv, [128, 3, 2]], # 6-P2/4
    [-1, 3, C3, [128]],   # 7-P2/4
    [-1, 1, Conv, [256, 3, 2]],  # 8-P3/8
    [-1, 9, C3, [256]],   # 9-P3/8

    
    ######### TransformerBlock Two #############
   # transformer fusion
    [4, 1, DCT_2D, [256]], # 10
    [10, 1,  IDCT_2D, [256]],     # 11
    [9, 1, DCT_2D, [256]], # 12
    [12, 1,  IDCT_2D, [256]],      # 13
    [[4,13], 1, Add, [1]], #14
    [[9,11], 1, Add, [1]], #15

   ######### TransformerBlock Three #############
   # stream one
    [14, 1, Conv, [512, 3, 2]],   # 13-P4/16 _16
    [-1, 9, C3, [512]],   # 14-P4/16 _17
   # stream two
    [15, 1, Conv, [512, 3, 2]],   # 15-P4/16 _18
    [-1, 9, C3, [512]],   # 16-P4/16  _19
   # transformer fusion
    [17, 1, DCT_2D, [512]], # 20
    [20, 1,  IDCT_2D, [512]],     # 21
    [19, 1, DCT_2D, [512]], # 22
    [22, 1,  IDCT_2D, [512]],      # 23
    [[17,23], 1, Add, [1]],    # 18-P3/8 stream one x+trans[0]  24
    [[19,21], 1, Add, [1]],    # 19-P3/8 stream two x+trans[1]  25

    ######### TransformerBlock Four #############
    # stream one
    [24, 1, Conv, [1024, 3, 2]],    # 20-P5/32  26
    [-1, 1, SPP, [1024, [5, 9, 13]]],   # 21-P5/32    27
    [-1, 3, C3, [1024, False]],   # 22-P5/32   28
    # stream two
    [25, 1, Conv, [1024, 3, 2]],    # 23-P5/32    29
    [-1, 1, SPP, [1024, [5, 9, 13]]],   # 24-P5/32     30
    [-1, 3, C3, [1024, False]],   # 25-P5/32       31
    # # transformer fusion
    [28, 1, DCT_2D, [1024]], # 32
    [32, 1,  IDCT_2D, [1024]],     # 33
    [31, 1, DCT_2D, [1024]], # 34
    [34, 1,  IDCT_2D, [1024]],      # 35
    [[28,35], 1, Add, [1]],    # 18-P3/8 stream one x+trans[0]  36
    [[31,33], 1, Add, [1]],    # 19-P3/8 stream two x+trans[1]  37

    ######### Add Block #############
    [[14,15], 1, Add, [1]],   # 29-P3/8 fusion backbone P3       38
    [[24,25], 1, Add, [1]],   # 30-P4/16 fusion backbone P4     39
    [[36,37], 1, Add, [1]],   # 31-P5/32 fusion backbone P5     40

  ]


# YOLOv5 head
head:
  [
    [-1, 1, Conv, [512, 1, 1]],   # 41
    [-1, 1, nn.Upsample, [None, 2, 'nearest']],   # 42
    [[-1,39], 1, Concat, [1]],    # 43 cat backbone P4
    [-1, 3, C3, [512, False]],    # 44

    [-1, 1, Conv, [256, 1, 1]],   # 45
    [-1, 1, nn.Upsample, [None, 2, 'nearest']],   # 46
    [[-1,38], 1, Concat, [1]],    # 47 cat backbone P3
    [-1, 3, C3, [256, False]],    # 48 (P3/8-small)

    [-1, 1, Conv, [256, 3, 2]],   # 49
    [[-1,45], 1, Concat, [1]],    # 50 cat head P4
    [-1, 3, C3, [512, False]],    # 51 (P4/16-medium)

    [-1, 1, Conv, [512, 3, 2]],    # 52
    [[-1,41], 1, Concat, [1]],     # 53 cat head P5
    [-1, 3, C3, [1024, False]],     # 54 (P5/32-large)

    [[48, 51, 54], 1, Detect, [nc, anchors]],   # Detect(P3, P4, P5)
  ]
