# parameters
nc: 3  # number of classes
depth_multiple: 1.00  # model depth multiple
width_multiple: 1.00  # layer channel multiple

# anchors
anchors:
  - [10,13, 16,30, 33,23]   # P3/8
  - [30,61, 62,45, 59,119]  # P4/16
  - [116,90, 156,198, 373,326]  # P5/32

# YOLOv5 backbone
backbone:
  # [from, number, module, args]
  # Two Stream
  [
    ######### TransformerBlock One #############
    # stream one
    [-1, 1, Focus, [64, 3]],    # 0-P1/2
    [-1, 1, Conv, [128, 3, 2]], # 1-P2/4
    [-1, 3, C3, [128]],   # 2-P2/4
    [-1, 1, Conv, [256, 3, 2]],  # 3-P3/8
    [-1, 9, C3, [256]],   # 4-P3/8
    # stream two
    [-4, 1, Focus, [64, 3]],    # 5-P1/2
    [-1, 1, Conv, [128, 3, 2]], # 6-P2/4
    [-1, 3, C3, [128]],   # 7-P2/4
    [-1, 1, Conv, [256, 3, 2]],  # 8-P3/8
    [-1, 9, C3, [256]],   # 9-P3/8

    
    ######### TransformerBlock Two #############
   # transformer fusion
   # [[4,9], 1, GPT, [256]],   # 10-P3/8
   # [[4,10], 1, Add2, [256,0]],    # 11-P3/8 stream one x+trans[0]
   # [[9,10], 1, Add2, [256,1]],    # 12-P3/8 stream two x+trans[1]
    [4, 1, DCT_2D, [256]], # 10
    [10, 1,  IDCT_2D, [256]],     # 11
    [9, 1, DCT_2D, [256]], # 12
    [12, 1,  IDCT_2D, [256]],      # 13
    [[4,11], 1, Add, [1]], #14
    [[9,13], 1, Add, [1]], #15
   ######### TransformerBlock Three #############
   # stream one
    [14, 1, Conv, [512, 3, 2]],   # 13-P4/16 _16
    [-1, 9, C3, [512]],   # 14-P4/16 _17
   # stream two
    [15, 1, Conv, [512, 3, 2]],   # 15-P4/16 _18
    [-1, 9, C3, [512]],   # 16-P4/16  _19
   # transformer fusion
    [[17,19], 1, GPT, [512]],   # 17-P3/8   20
    [[17,20], 1, Add2, [512,0]],    # 18-P3/8 stream one x+trans[0]  21
    [[19,20], 1, Add2, [512,1]],    # 19-P3/8 stream two x+trans[1]  22


    ######### TransformerBlock Four #############
    # stream one
    [21, 1, Conv, [1024, 3, 2]],    # 20-P5/32  23
    [-1, 1, SPP, [1024, [5, 9, 13]]],   # 21-P5/32    24
    [-1, 3, C3, [1024, False]],   # 22-P5/32   25
    # stream two
    [22, 1, Conv, [1024, 3, 2]],    # 23-P5/32    26
    [-1, 1, SPP, [1024, [5, 9, 13]]],   # 24-P5/32     27
    [-1, 3, C3, [1024, False]],   # 25-P5/32       28
    # transformer fusion
    [[25,28], 1, GPT, [1024]],    # 26-P5/32         29
    [[25,29], 1, Add2, [1024,0]],    # 27-P5/32 stream one x+trans[0]        30
    [[28,29], 1, Add2, [1024,1]],    # 28-P5/32 stream two x+trans[1]         31


    ######### Add Block #############
    [[14,15], 1, Add, [1]],   # 29-P3/8 fusion backbone P3       32
    [[21,22], 1, Add, [1]],   # 30-P4/16 fusion backbone P4     33
    [[30,31], 1, Add, [1]],   # 31-P5/32 fusion backbone P5     34

  ]


# YOLOv5 head
head:
  [
    [-1, 1, Conv, [512, 1, 1]],   # 35
    [-1, 1, nn.Upsample, [None, 2, 'nearest']],   # 36
    [[-1,33], 1, Concat, [1]],    # 37 cat backbone P4
    [-1, 3, C3, [512, False]],    # 38

    [-1, 1, Conv, [256, 1, 1]],   # 39
    [-1, 1, nn.Upsample, [None, 2, 'nearest']],   # 40
    [[-1,32], 1, Concat, [1]],    # 41 cat backbone P3
    [-1, 3, C3, [256, False]],    # 42 (P3/8-small)

    [-1, 1, Conv, [256, 3, 2]],   # 43
    [[-1,39], 1, Concat, [1]],    # 44 cat head P4
    [-1, 3, C3, [512, False]],    # 45 (P4/16-medium)

    [-1, 1, Conv, [512, 3, 2]],    # 46
    [[-1,35], 1, Concat, [1]],     # 47 cat head P5
    [-1, 3, C3, [1024, False]],     # 48 (P5/32-large)

    [[42, 45, 48], 1, Detect, [nc, anchors]],   # Detect(P3, P4, P5)
  ]
